…
/home/Ferny/anaconda3/envs/mem/lib/python3.12/site-packages/keras/src/layers/convolutional/base_conv.py:107: UserWarning: Do not pass an `input_shape`/`input_dim` argument to a layer. When using Sequential models, prefer using an `Input(shape)` object as the first layer in the model instead.
  super().__init__(activity_regularizer=activity_regularizer, **kwargs)
Model: "encoder"
┏━━━━━━━━━━━━━━━━━━━━━━━━━━━━━━━━━━━━━━┳━━━━━━━━━━━━━━━━━━━━━━━━━━━━━┳━━━━━━━━━━━━━━━━━┓
┃ Layer (type)                         ┃ Output Shape                ┃         Param # ┃
┡━━━━━━━━━━━━━━━━━━━━━━━━━━━━━━━━━━━━━━╇━━━━━━━━━━━━━━━━━━━━━━━━━━━━━╇━━━━━━━━━━━━━━━━━┩
│ input_layer_1 (InputLayer)           │ (None, 28, 28, 1)           │               0 │
├──────────────────────────────────────┼─────────────────────────────┼─────────────────┤
│ conv2d (Conv2D)                      │ (None, 28, 28, 16)          │             160 │
├──────────────────────────────────────┼─────────────────────────────┼─────────────────┤
│ batch_normalization                  │ (None, 28, 28, 16)          │              64 │
│ (BatchNormalization)                 │                             │                 │
├──────────────────────────────────────┼─────────────────────────────┼─────────────────┤
│ conv2d_1 (Conv2D)                    │ (None, 28, 28, 16)          │           2,320 │
├──────────────────────────────────────┼─────────────────────────────┼─────────────────┤
│ batch_normalization_1                │ (None, 28, 28, 16)          │              64 │
│ (BatchNormalization)                 │                             │                 │
├──────────────────────────────────────┼─────────────────────────────┼─────────────────┤
│ max_pooling2d (MaxPooling2D)         │ (None, 14, 14, 16)          │               0 │
├──────────────────────────────────────┼─────────────────────────────┼─────────────────┤
│ spatial_dropout2d (SpatialDropout2D) │ (None, 14, 14, 16)          │               0 │
├──────────────────────────────────────┼─────────────────────────────┼─────────────────┤
│ conv2d_2 (Conv2D)                    │ (None, 14, 14, 32)          │           4,640 │
├──────────────────────────────────────┼─────────────────────────────┼─────────────────┤
│ batch_normalization_2                │ (None, 14, 14, 32)          │             128 │
│ (BatchNormalization)                 │                             │                 │
├──────────────────────────────────────┼─────────────────────────────┼─────────────────┤
│ conv2d_3 (Conv2D)                    │ (None, 14, 14, 32)          │           9,248 │
├──────────────────────────────────────┼─────────────────────────────┼─────────────────┤
│ batch_normalization_3                │ (None, 14, 14, 32)          │             128 │
│ (BatchNormalization)                 │                             │                 │
├──────────────────────────────────────┼─────────────────────────────┼─────────────────┤
│ max_pooling2d_1 (MaxPooling2D)       │ (None, 7, 7, 32)            │               0 │
├──────────────────────────────────────┼─────────────────────────────┼─────────────────┤
│ spatial_dropout2d_1                  │ (None, 7, 7, 32)            │               0 │
│ (SpatialDropout2D)                   │                             │                 │
├──────────────────────────────────────┼─────────────────────────────┼─────────────────┤
│ conv2d_4 (Conv2D)                    │ (None, 7, 7, 64)            │          18,496 │
├──────────────────────────────────────┼─────────────────────────────┼─────────────────┤
│ batch_normalization_4                │ (None, 7, 7, 64)            │             256 │
│ (BatchNormalization)                 │                             │                 │
├──────────────────────────────────────┼─────────────────────────────┼─────────────────┤
│ conv2d_5 (Conv2D)                    │ (None, 7, 7, 64)            │          36,928 │
├──────────────────────────────────────┼─────────────────────────────┼─────────────────┤
│ batch_normalization_5                │ (None, 7, 7, 64)            │             256 │
│ (BatchNormalization)                 │                             │                 │
├──────────────────────────────────────┼─────────────────────────────┼─────────────────┤
│ conv2d_6 (Conv2D)                    │ (None, 7, 7, 64)            │          36,928 │
├──────────────────────────────────────┼─────────────────────────────┼─────────────────┤
│ batch_normalization_6                │ (None, 7, 7, 64)            │             256 │
│ (BatchNormalization)                 │                             │                 │
├──────────────────────────────────────┼─────────────────────────────┼─────────────────┤
│ max_pooling2d_2 (MaxPooling2D)       │ (None, 4, 4, 64)            │               0 │
├──────────────────────────────────────┼─────────────────────────────┼─────────────────┤
│ spatial_dropout2d_2                  │ (None, 4, 4, 64)            │               0 │
│ (SpatialDropout2D)                   │                             │                 │
├──────────────────────────────────────┼─────────────────────────────┼─────────────────┤
│ conv2d_7 (Conv2D)                    │ (None, 4, 4, 128)           │          73,856 │
├──────────────────────────────────────┼─────────────────────────────┼─────────────────┤
│ batch_normalization_7                │ (None, 4, 4, 128)           │             512 │
│ (BatchNormalization)                 │                             │                 │
├──────────────────────────────────────┼─────────────────────────────┼─────────────────┤
│ conv2d_8 (Conv2D)                    │ (None, 4, 4, 128)           │         147,584 │
├──────────────────────────────────────┼─────────────────────────────┼─────────────────┤
│ batch_normalization_8                │ (None, 4, 4, 128)           │             512 │
│ (BatchNormalization)                 │                             │                 │
├──────────────────────────────────────┼─────────────────────────────┼─────────────────┤
│ conv2d_9 (Conv2D)                    │ (None, 4, 4, 128)           │         147,584 │
├──────────────────────────────────────┼─────────────────────────────┼─────────────────┤
│ batch_normalization_9                │ (None, 4, 4, 128)           │             512 │
│ (BatchNormalization)                 │                             │                 │
├──────────────────────────────────────┼─────────────────────────────┼─────────────────┤
│ max_pooling2d_3 (MaxPooling2D)       │ (None, 2, 2, 128)           │               0 │
├──────────────────────────────────────┼─────────────────────────────┼─────────────────┤
│ spatial_dropout2d_3                  │ (None, 2, 2, 128)           │               0 │
│ (SpatialDropout2D)                   │                             │                 │
├──────────────────────────────────────┼─────────────────────────────┼─────────────────┤
│ conv2d_10 (Conv2D)                   │ (None, 2, 2, 256)           │         295,168 │
├──────────────────────────────────────┼─────────────────────────────┼─────────────────┤
│ batch_normalization_10               │ (None, 2, 2, 256)           │           1,024 │
│ (BatchNormalization)                 │                             │                 │
├──────────────────────────────────────┼─────────────────────────────┼─────────────────┤
│ conv2d_11 (Conv2D)                   │ (None, 2, 2, 256)           │         590,080 │
├──────────────────────────────────────┼─────────────────────────────┼─────────────────┤
│ batch_normalization_11               │ (None, 2, 2, 256)           │           1,024 │
│ (BatchNormalization)                 │                             │                 │
├──────────────────────────────────────┼─────────────────────────────┼─────────────────┤
│ conv2d_12 (Conv2D)                   │ (None, 2, 2, 256)           │         590,080 │
├──────────────────────────────────────┼─────────────────────────────┼─────────────────┤
│ batch_normalization_12               │ (None, 2, 2, 256)           │           1,024 │
│ (BatchNormalization)                 │                             │                 │
├──────────────────────────────────────┼─────────────────────────────┼─────────────────┤
│ max_pooling2d_4 (MaxPooling2D)       │ (None, 1, 1, 256)           │               0 │
├──────────────────────────────────────┼─────────────────────────────┼─────────────────┤
│ spatial_dropout2d_4                  │ (None, 1, 1, 256)           │               0 │
│ (SpatialDropout2D)                   │                             │                 │
├──────────────────────────────────────┼─────────────────────────────┼─────────────────┤
│ flatten (Flatten)                    │ (None, 256)                 │               0 │
├──────────────────────────────────────┼─────────────────────────────┼─────────────────┤
│ encoded (LayerNormalization)         │ (None, 256)                 │             512 │
└──────────────────────────────────────┴─────────────────────────────┴─────────────────┘
 Total params: 1,959,344 (7.47 MB)
 Trainable params: 1,956,464 (7.46 MB)
 Non-trainable params: 2,880 (11.25 KB)
/home/Ferny/anaconda3/envs/mem/lib/python3.12/site-packages/keras/src/layers/core/dense.py:87: UserWarning: Do not pass an `input_shape`/`input_dim` argument to a layer. When using Sequential models, prefer using an `Input(shape)` object as the first layer in the model instead.
  super().__init__(activity_regularizer=activity_regularizer, **kwargs)
Model: "classifier"
┏━━━━━━━━━━━━━━━━━━━━━━━━━━━━━━━━━━━━━━┳━━━━━━━━━━━━━━━━━━━━━━━━━━━━━┳━━━━━━━━━━━━━━━━━┓
┃ Layer (type)                         ┃ Output Shape                ┃         Param # ┃
┡━━━━━━━━━━━━━━━━━━━━━━━━━━━━━━━━━━━━━━╇━━━━━━━━━━━━━━━━━━━━━━━━━━━━━╇━━━━━━━━━━━━━━━━━┩
│ input_layer_2 (InputLayer)           │ (None, 256)                 │               0 │
├──────────────────────────────────────┼─────────────────────────────┼─────────────────┤
│ dense (Dense)                        │ (None, 256)                 │          65,792 │
├──────────────────────────────────────┼─────────────────────────────┼─────────────────┤
│ dropout (Dropout)                    │ (None, 256)                 │               0 │
├──────────────────────────────────────┼─────────────────────────────┼─────────────────┤
│ dense_1 (Dense)                      │ (None, 256)                 │          65,792 │
├──────────────────────────────────────┼─────────────────────────────┼─────────────────┤
│ dropout_1 (Dropout)                  │ (None, 256)                 │               0 │
├──────────────────────────────────────┼─────────────────────────────┼─────────────────┤
│ classified (Dense)                   │ (None, 2)                   │             514 │
└──────────────────────────────────────┴─────────────────────────────┴─────────────────┘
 Total params: 132,098 (516.01 KB)
 Trainable params: 132,098 (516.01 KB)
 Non-trainable params: 0 (0.00 B)
Model: "decoder"
┏━━━━━━━━━━━━━━━━━━━━━━━━━━━━━━━━━━━━━━┳━━━━━━━━━━━━━━━━━━━━━━━━━━━━━┳━━━━━━━━━━━━━━━━━┓
┃ Layer (type)                         ┃ Output Shape                ┃         Param # ┃
┡━━━━━━━━━━━━━━━━━━━━━━━━━━━━━━━━━━━━━━╇━━━━━━━━━━━━━━━━━━━━━━━━━━━━━╇━━━━━━━━━━━━━━━━━┩
│ input_layer_3 (InputLayer)           │ (None, 256)                 │               0 │
├──────────────────────────────────────┼─────────────────────────────┼─────────────────┤
│ dense_2 (Dense)                      │ (None, 6272)                │       1,611,904 │
├──────────────────────────────────────┼─────────────────────────────┼─────────────────┤
│ reshape (Reshape)                    │ (None, 7, 7, 128)           │               0 │
├──────────────────────────────────────┼─────────────────────────────┼─────────────────┤
│ conv2d_13 (Conv2D)                   │ (None, 7, 7, 256)           │         295,168 │
├──────────────────────────────────────┼─────────────────────────────┼─────────────────┤
│ up_sampling2d (UpSampling2D)         │ (None, 14, 14, 256)         │               0 │
├──────────────────────────────────────┼─────────────────────────────┼─────────────────┤
│ spatial_dropout2d_5                  │ (None, 14, 14, 256)         │               0 │
│ (SpatialDropout2D)                   │                             │                 │
├──────────────────────────────────────┼─────────────────────────────┼─────────────────┤
│ batch_normalization_13               │ (None, 14, 14, 256)         │           1,024 │
│ (BatchNormalization)                 │                             │                 │
├──────────────────────────────────────┼─────────────────────────────┼─────────────────┤
│ conv2d_14 (Conv2D)                   │ (None, 14, 14, 128)         │         295,040 │
├──────────────────────────────────────┼─────────────────────────────┼─────────────────┤
│ up_sampling2d_1 (UpSampling2D)       │ (None, 28, 28, 128)         │               0 │
├──────────────────────────────────────┼─────────────────────────────┼─────────────────┤
│ spatial_dropout2d_6                  │ (None, 28, 28, 128)         │               0 │
│ (SpatialDropout2D)                   │                             │                 │
├──────────────────────────────────────┼─────────────────────────────┼─────────────────┤
│ batch_normalization_14               │ (None, 28, 28, 128)         │             512 │
│ (BatchNormalization)                 │                             │                 │
├──────────────────────────────────────┼─────────────────────────────┼─────────────────┤
│ conv2d_15 (Conv2D)                   │ (None, 28, 28, 1)           │           1,153 │
├──────────────────────────────────────┼─────────────────────────────┼─────────────────┤
│ decoded (Rescaling)                  │ (None, 28, 28, 1)           │               0 │
└──────────────────────────────────────┴─────────────────────────────┴─────────────────┘
 Total params: 2,204,801 (8.41 MB)
 Trainable params: 2,204,033 (8.41 MB)
 Non-trainable params: 768 (3.00 KB)
Model: "functional"
┏━━━━━━━━━━━━━━━━━━━━━━━━━━━━━━━┳━━━━━━━━━━━━━━━━━━━━━━━━━━━┳━━━━━━━━━━━━━━━━━┳━━━━━━━━━━━━━━━━━━━━━━━━━━━━┓
┃ Layer (type)                  ┃ Output Shape              ┃         Param # ┃ Connected to               ┃
┡━━━━━━━━━━━━━━━━━━━━━━━━━━━━━━━╇━━━━━━━━━━━━━━━━━━━━━━━━━━━╇━━━━━━━━━━━━━━━━━╇━━━━━━━━━━━━━━━━━━━━━━━━━━━━┩
│ input_layer (InputLayer)      │ (None, 28, 28, 1)         │               0 │ -                          │
├───────────────────────────────┼───────────────────────────┼─────────────────┼────────────────────────────┤
│ encoder (Functional)          │ (None, 256)               │       1,959,344 │ input_layer[0][0]          │
├───────────────────────────────┼───────────────────────────┼─────────────────┼────────────────────────────┤
│ classifier (Functional)       │ (None, 2)                 │         132,098 │ encoder[0][0]              │
├───────────────────────────────┼───────────────────────────┼─────────────────┼────────────────────────────┤
│ decoder (Functional)          │ (None, 28, 28, 1)         │       2,204,801 │ encoder[0][0]              │
└───────────────────────────────┴───────────────────────────┴─────────────────┴────────────────────────────┘
 Total params: 4,296,243 (16.39 MB)
 Trainable params: 4,292,595 (16.37 MB)
 Non-trainable params: 3,648 (14.25 KB)
Epoch 1/300
I0000 00:00:1751687109.649891  321580 service.cc:146] XLA service 0x7f8e5c014400 initialized for platform CUDA (this does not guarantee that XLA will be used). Devices:
…
